model.pt (torch, 86404 bytes, 10 tensors)

mu_1 f4 [1, 64]
-0.00018826962 0.00371118 0.0063780895 -0.0176256 0.013452152 -0.0003414591 -0.010344964 -0.014564937
-0.005517952 0.00574369 0.007722549 0.0034740705 0.009692459 0.01234356 -0.012718645 0.0038288005
-0.0051969546 0.007876741 0.0050587505 0.009150143 0.008011441 -0.0072141415 0.006987801 0.0023134148
-0.009304151 -0.0070138425 -0.0075597945 0.008765875 0.010887781 0.004195055 -0.010942677 0.0008497742
0.016655456 -0.013273563 0.0014029954 -0.002804899 -0.018478962 0.017687023 -0.0010041102 0.0028295072
-0.015269438 -0.0045488984 0.0076776324 -0.0062651653 7.8130026e-05 0.0122524835 -0.005430036 -0.018452846
0.0099792015 -0.023099588 -0.0034272044 -0.008259845 -0.0007443419 -0.00902519 -0.0029445963 -0.0053241975
-0.0066959886 -0.029315414 0.008112398 -0.011390759 0.009414933 -0.0012147333 -0.012410843 0.009305762
00000000: 3e6a 45b9 4537 733b 4bff d03b 9063 90bc
00000010: 6a66 5c3c dd05 b3b9 ed7d 29bc c6a1 6ebc
00000020: f0cf b4bb 9035 bc3b 700d fd3b 3bad 633b
00000030: 1fcd 1e3c a53c 4a3c dd61 50bc 9dec 7a3b
00000040: 374b aabb 720d 013c e0c3 a53b 7bea 153c
00000050: 6b42 033c 9b64 ecbb ecf9 e43b a99c 173b
00000060: 7070 18bc 60d4 e5bb 27b8 f7bb bf9e 0f3c
00000070: aa62 323c ac76 893b ea48 33bc 62c3 5e3a
00000080: 0671 883c 5c79 59bc b7e4 b73a 65d2 37bb
00000090: 3161 97bc 60e4 903c 599c 83ba 416f 393b
000000a0: aa2c 7abc ed0e 95bb a694 fb3b 044c cdbb
000000b0: bdd9 a338 a4be 483c 72ee b1bb 6c2a 97bc
000000c0: ce7f 233c 593b bdbc f39a 60bb 4d54 07bc
000000d0: f01f 43ba 64de 13bc 21fa 40bb 9b76 aebb
000000e0: 066a dbbb e126 f0bc dde9 043c 4ea0 3abc
000000f0: 1741 1a3c b037 9fba d956 4bbc 3277 183c

mu_2.weight f4 [64, 64]
-0.008191187 -0.0035567486 -0.008766723 0.0065666577 -0.012030186 0.0024274248 0.019897213 -0.004102124
-0.003564044 -0.0019112932 -0.0071422737 -1.1542745e-06 0.003389755 -0.0056485534 0.007314884 -0.016473798
0.0071274596 0.005608216 0.009270914 0.0066567683 -0.008677837 0.002619499 -0.0011859094 -0.005289994
0.0052947616 -0.013818606 -0.0011837563 -0.0045024785 -0.012970111 -0.0015923737 0.0014098587 -8.699428e-05
0.007475385 -0.0031292464 -0.010875613 -0.00026373754 -0.021457847 0.0016212831 0.003919724 -0.016341574
0.008424853 -0.0122811375 0.00015725156 -0.0015213997 -0.008296592 -0.0037455286 -0.011330585 -0.017268304
-0.006558294 -0.00050664117 0.0019276463 0.0009805153 -0.0032454995 -0.0003960904 0.010571947 0.003388615
0.0054705706 -0.023055606 0.0055632913 0.0028886518 -0.0013430129 -0.0070379353 0.00971789 -0.008068307
-0.00961983 0.018366456 -0.007872027 -0.015759496 0.008309941 0.015913874 0.0113902865 0.0033794644
0.0025475055 0.0032481428 -0.00924559 -0.011641413 0.00086123403 -0.0019863544 -0.0026059353 0.0236483
-0.00063992623 -0.0063799536 -0.009024033 -0.0073911618 0.001309662 0.0022467459 0.006823944 -0.012331763
-0.015245473 0.020933129 -0.016936747 0.013985084 -0.016181441 0.0006483792 -0.0065778783 0.006439998
0.0055469936 0.028119711 0.0022845415 -0.00062255317 0.0005699865 -0.0137603795 0.0053121136 -0.0006253986
0.00067710294 0.0055512656 0.0063098036 0.013169327 0.012856769 -0.014964416 0.0018485045 0.000987857
0.0029899462 0.001402904 -0.0009327029 0.008589852 0.0023315924 -0.00012412183 0.009985909 0.0062039346
0.0014169521 0.007404853 8.5190695e-06 0.016490877 0.013435096 -0.007661821 -0.005455368 -0.010654724
0.003361394 -0.008712694 -0.006464335 0.012259327 0.0013087775 -0.009423014 0.013172899 -0.00540989
0.0015221991 -0.005653497 0.0030636191 -0.02256155 0.020022195 -0.010436961 -0.006884823 0.0022002303
0.00074766524 0.010852587 0.0022301655 -0.0029884577 0.008331974 -0.0037763098 -0.00039550426 0.005740413
0.0073809084 0.010326046 0.009609617 0.008542496 0.0062556593 -0.003843355 -0.008897553 0.001370867
0.007845275 -0.012828027 -0.014347653 0.015147595 0.004304957 -0.01619811 0.0062032733 0.012334553
-0.006267827 -0.0010540911 -0.011011618 0.005094067 0.0033026887 -0.011012567 -0.011513171 0.012119467
-0.009100744 0.0015957186 0.009954225 -0.011327731 0.00057318417 0.009694472 -0.0005159736 0.0031115322
-0.004134934 -0.015935717 0.009873988 0.015083256 0.02272051 -0.014460247 -0.025071207 -0.0020147278
-0.00082993344 -0.0016757366 -0.011882641 -0.0015451409 0.018337645 0.0027280017 0.005475252 0.008029018
-0.010842771 0.014990683 0.007919307 0.0034685342 -0.0008465074 -0.00037839724 -0.017625181 0.004048944
-0.017715096 -0.007980372 -0.013329111 -0.007903982 -0.0014033064 -0.014281252 0.004857679 -0.009112181
-0.0016096425 -0.0005244615 0.0007143666 0.012423532 0.0060254866 0.00027070838 -0.0024079247 0.007110299
0.011075123 0.01129088 0.0015008238 -0.0058357758 0.009038746 -0.005986486 0.0009076295 -0.006883337
0.0018659973 0.018836452 0.0007504195 -0.0021654086 0.018521998 0.0063213324 0.0044681393 0.006780846
0.025053795 -0.0049510677 -0.009474778 0.005743329 -0.00619751 -0.004524404 0.015577663 0.0025886192
0.010027261 0.022070717 0.0046588834 -0.007932092 0.013846417 0.0090006795 0.004513037 -0.0038451771
00000000: 5434 06bc 5718 69bb 4da2 0fbc 1e2d d73b
00000010: 421a 45bc 6e15 1f3b 7bff a23c 1c6b 86bb
00000020: bc92 69bb 5c84 faba bc09 eabb 92ec 9ab5
00000030: a726 5e3b 8017 b9bb b2b1 ef3b 0ff4 86bc
00000040: 778d e93b 20c5 b73b 08e5 173c 0521 da3b
00000050: 7d2d 0ebc e7ab 2b3b 8470 9bba b057 adbb
00000060: ae7f ad3b 6f67 62bc 4528 9bba 8789 93bb
00000070: 9780 54bc 32b7 d0ba 02cb b83a b370 b6b8
00000080: 13f4 f43b 0b14 4dbb a12f 32bc 4146 8ab9
00000090: 5ec8 afbc 3c81 d43a 0771 803b c4de 85bc
000000a0: 6508 0a3c d336 49bc e5e3 2439 b469 c7ba
000000b0: 6eee 07bc 8b77 75bb eba3 39bc 4276 8dbc
000000c0: f5e6 d6bb 1dd0 04ba 14a9 fc3a a284 803a
000000d0: 72b2 54bb 5baa cfb9 f635 2d3c 8713 5e3b
000000e0: 7942 b33b 1cdf bcbc 454c b63b 894f 3d3b
000000f0: 0908 b0ba 7b9e e6bb c937 1f3c ef30 04bc
00000100: 7e9c 1dbc 4075 963c adf9 00bc 0f1a 81bc
00000110: 6b26 083c d05d 823c 539e 3a3c 017a 5d3b
00000120: 0df4 263b cbde 543b d17a 17bc a0bb 3ebc
00000130: 70c4 613a 7f2d 02bb 57c8 2abb 14ba c13c
00000140: b9c0 27ba ee0e d1bb 8ad9 13bc 8f31 f2bb
00000150: f7a8 ab3a 243e 133b 649b df3b 2a0b 4abc
00000160: 26c8 79bc f47b ab3c efbe 8abc b221 653c
00000170: f18e 84bc fef7 293a 3e8b d7bb 9e06 d33b
00000180: 8ec3 b53b 4f5b e63c 3fb8 153b d632 23ba
00000190: 266b 153a 3773 61bc 3d11 ae3b caf1 23ba
000001a0: 9c7f 313a 64e7 b53b 78c2 ce3b 29c4 573c
000001b0: 33a5 523c 4f2d 75bc 8549 f23a fb7a 813a
000001c0: f9f2 433b a6e1 b73a a280 74ba 73bc 0c3c
000001d0: a1cd 183b b326 02b9 f09b 233c 604a cb3b
000001e0: 06b9 b93a 69a4 f23b 20ed 0e37 e017 873c
000001f0: e01e 5c3c 0310 fbbb f2c2 b2bb 2791 2ebc
00000200: d54a 5c3b b0bf 0ebc c6d2 d3bb 58db 483c
00000210: 498b ab3a fc62 1abc 25d3 573c 7245 b1bb
00000220: 8784 c73a f840 b9bb 00c7 483b 00d3 b8bc
00000230: 9605 a43c caff 2abc 159a e1bb bd31 103b
00000240: f7fe 433a 0dcf 313c f827 123b 00da 43bb
00000250: d582 083c f77b 77bb af5b cfb9 131a bc3b
00000260: 8cdb f13b 932e 293c a871 1d3c d3f5 0b3c
00000270: 46fc cc3b cce0 7bbb 0bc7 11bc aaae b33a
00000280: 7889 003c a52c 52bc 6b12 6bbc 9e2d 783c
00000290: 9910 8d3b e6b1 84bc d444 cb3b dd16 4a3c
000002a0: 5862 cdbb 6e29 8aba 136a 34bc 22ec a63b
000002b0: ec71 583b 0e6e 34bc bda1 3cbc bb90 463c
000002c0: 491b 15bc 6e27 d13a 0c17 233c f397 39bc
000002d0: bd41 163a 90d5 1e3c 6742 07ba d9ea 4b3b
000002e0: 577e 87bb 9f8b 82bc 82c6 213c c31f 773c
000002f0: 5d20 ba3c acea 6cbc 2262 cdbc 8609 04bb
00000300: e48f 59ba 64a4 dbba 69af 42bc 5386 caba
00000310: d438 963c 46c8 323b be69 b33b 248c 033c
00000320: e1a5 31bc 7b9b 753c fbbf 013c 5950 633b
00000330: 26e8 5dba 9e63 c6b9 af62 90bc 01ad 843b
00000340: 401f 91bc 1bc0 02bc 5862 5abc b47f 01bc
00000350: 26ef b7ba eafb 69bc 2a2d 9f3b 424b 15bc
00000360: a4fa d2ba 047c 09ba 5544 3b3a 128c 4b3c
00000370: 7271 c53b dded 8d39 46ce 1dbb 83fd e83b
00000380: 6f74 353c 62fd 383c 4ab7 c43a 093a bfbb
00000390: 4017 143c 492a c4bb fced 6d3a 9e8d e1bb
000003a0: 7b94 f43a e74e 9a3c cdb7 443a 87e9 0dbb
000003b0: 72bb 973c 2e23 cf3b 7869 923b dc31 de3b
000003c0: 9e3d cd3c 913c a2bb 193c 1bbc 8932 bc3b
000003d0: 7b14 cbbb 7441 94bb 7439 7f3c d3a5 293b
000003e0: 6249 243c a6cd b43c 8ca9 983b 9bf5 01bc
000003f0: 15dc 623c 9677 133c 19e2 933b 5eff 7bbb

mu_2.bias f4 [64]
-0.011132181 0.022754624 0.10793057 0.108676374 -0.037957564 -0.010702178 -0.04305561 -0.1117744
0.044471115 -0.115756124 0.04072538 0.07599822 0.11103399 0.096162856 -0.0128020495 -0.10748251
0.04838483 -0.077848166 0.11183117 -0.08343351 0.064588204 0.026305929 -0.06962694 0.087629944
0.016594976 -0.06692988 -0.027491882 -0.08507642 0.11292833 0.044841647 0.02161862 0.03555043
0.04410392 0.08849774 -0.081824854 -0.038301155 0.019887388 0.10095686 0.04059449 0.068416044
0.10414246 -0.05013314 0.016628087 0.08501355 -0.05643134 0.05389455 0.008716151 0.08369321
-0.110275716 0.05370018 0.030076727 -0.06618604 0.063448116 -0.11902867 -0.057692036 0.10892825
0.014161751 0.028848872 0.087738305 0.04906653 -0.027076364 0.114606336 0.028747216 -0.053862214
00000000: c063 36bc e867 ba3c b40a dd3d b891 de3d
00000010: 6479 1bbd 3058 2fbc 145b 30bd fae9 e4bd
00000020: 5827 363d 8c11 edbd a8cf 263d f4a4 9b3d
00000030: ca65 e33d 08f1 c43d b0bf 51bc ca1f dcbd
00000040: 2c2f 463d dc6e 9fbd be07 e53d 30df aabd
00000050: d246 843d 887f d73c 9298 8ebd 5477 b33d
00000060: 30f2 873c 8812 89bd a836 e1bc 8c3c aebd
00000070: f846 e73d e0ab 373d 8819 b13c 549d 113d
00000080: 50a6 343d 4e3e b53d ca93 a7bd ace1 1cbd
00000090: e0ea a23c 78c2 ce3d 6846 263d b61d 8c3d
000000a0: a448 d53d 6858 4dbd a037 883c 961b ae3d
000000b0: 8c24 67bd 88c0 5c3d 30ce 0e3c 5867 ab3d
000000c0: 3cd8 e1bd b8f4 5b3d 7863 f63c 8c8c 87bd
000000d0: 16f1 813d 4ec5 f3bd 7c4e 6cbd c615 df3d
000000e0: b006 683c 7854 ec3c 24b0 b33d fcf9 483d
000000f0: 40cf ddbc bab6 ea3d 487f eb3c a09e 5cbd

q_1.weight f4 [64, 64]
-0.0101555055 -0.0071880682 0.0018560769 -0.015309398 0.016111603 -0.0047734133 -0.0035391797 0.008084299
-0.0031294103 0.0009775523 0.00037416432 0.009332742 0.028430883 0.008952989 -0.0043875827 0.004503414
-0.009242873 -0.00511905 0.008384953 0.004398766 0.009480193 -0.009917323 -0.0151480865 -0.0024782913
0.006986253 0.013413193 -0.015570228 -0.0031470028 -0.012997344 0.0026523955 0.017563827 0.009069027
0.019810464 -0.0028912881 -0.0071064224 -0.011313485 -0.003645379 0.009146563 -0.019503733 0.022559108
-0.008829432 -0.007826095 0.009550991 0.002806639 0.0026643174 -0.0012464741 -0.01248992 -0.0030241506
0.024093125 0.0028813253 -0.014185944 0.00010898619 -0.019605452 -0.024682397 0.0032025045 0.023123788
-0.013572233 -0.001646824 -0.0013573156 -0.007845177 0.0055033313 0.008315445 0.022691116 0.0009470694
0.0063938187 -0.00344621 -0.003640651 -0.0074474686 -0.0010078651 0.01674955 0.006323248 -0.002698824
0.004198934 0.0069509107 -0.0024655843 -0.003769831 0.007999909 -0.010860314 -0.0021163085 0.0025163877
0.02812522 -0.009470043 0.035409864 -0.010759994 -0.0017551717 -0.004441062 -0.008961135 -0.006367026
-0.01491691 0.011195448 -0.01128863 0.0063031698 -0.011385707 0.008235822 -0.00019395059 0.010602385
0.006636359 -0.024855247 -0.002974567 0.006598534 0.0062667774 -0.007998484 0.0043780077 0.0075164703
-0.00725184 0.0032737474 0.005555488 0.01201996 -0.006090356 0.0031339054 0.009820723 0.008657021
0.007245452 -0.0025238215 0.0054146736 0.020676583 0.0017470142 0.0052094585 -0.0044243014 0.010773205
-0.003931145 -0.0056159752 -0.009779677 0.014971891 0.0007522166 -0.004254107 -0.010384757 -0.005082292
-0.006658388 -0.008054633 0.010839825 -0.0015524509 0.010946825 -0.0038839625 -0.021515455 -0.0074476437
0.008679821 0.0044368175 -0.0058565293 0.011864202 -0.0028221027 -0.01051097 0.007791716 -0.0002960874
0.0072553987 -0.01701304 -0.017625475 -0.002756512 0.0057822624 0.0072543016 0.0020624246 -0.011798412
0.006585236 0.009554341 -0.0029084496 0.0042634495 -0.0052323616 -0.00732743 -0.008681433 0.013372345
-0.012056363 -0.0071876924 -0.024211468 0.008031293 0.014515736 -0.01918384 0.013834201 -0.0011105535
0.011193997 -0.008674138 0.008578931 -0.019170228 0.014521109 0.01572706 0.006384738 -0.016709391
0.007983605 0.015772866 0.0012345714 0.0067020957 -0.007494386 0.0013422633 0.0023560761 -0.007067121
0.00082837394 -0.019799232 0.0027461653 -0.0070451233 0.021527119 -0.0021888388 0.0010936412 0.016852072
0.010697076 0.0016578689 0.0077352063 -0.0061998386 -0.008589475 0.00036979307 -0.0002169972 -0.003800489
-0.007648006 0.0010268161 0.0029972743 -0.0028981634 0.0032011583 0.003042634 -0.02233106 0.000619278
-0.008367728 0.008746744 -0.002664848 0.00932971 0.0138045205 0.0041661034 0.001456983 -0.0076495474
0.0029516225 0.015676238 0.0010263473 -0.02018105 0.003590115 -0.0077648526 0.017430555 0.005167133
0.010390539 0.0065605734 0.02030612 0.0016005095 -0.007941056 -0.025712468 -0.00032942675 -0.00013272994
-0.013155254 -0.0075036786 -0.015710792 -0.008096773 -0.011366387 -0.0031909856 0.00276453 0.012350902
0.010259788 -0.012217311 0.016179878 -0.010121179 -0.0020176878 0.013838002 0.009216342 -0.010914458
0.0030460742 0.009516927 -0.00985311 -0.0077321064 0.016513143 0.0010749118 0.011011328 -0.0005161222
00000000: 4763 26bc e389 ebbb 9b47 f33a 45d4 7abc
00000010: 7bfc 833c 4b6a 9cbb 95f1 67bb 0274 043c
00000020: cb16 4dbb 3621 803a 7c2b c439 5be8 183c
00000030: e2e7 e83c 8faf 123c b6c5 8fbb 6091 933b
00000040: 6b6f 17bc b4bd a7bb 0b61 093c 8623 903b
00000050: d052 1b3c 447c 22bc ae2f 78bc d46a 22bb
00000060: f0ec e43b 02c3 5b3c 451a 7fbc f23d 4ebb
00000070: d0f2 54bc d0d3 2d3b 04e2 8f3c 4296 143c
00000080: 8e49 a23c c47b 3dbb fedc e8bb 325c 39bc
00000090: 50e7 6ebb 77db 153c 4bc6 9fbc e1cd b83c
000000a0: 52a9 10bc 0639 00bc c27b 1c3c 97ef 373b
000000b0: d49b 2e3b bb60 a3ba 85a2 4cbc d430 46bb
000000c0: f25e c53c 9ed4 3c3b 296c 68bc 848f e438
000000d0: 9d9b a0bc bd32 cabc 1ce1 513b 196e bd3c
000000e0: 125e 5ebc 3eda d7ba f4e7 b1ba 0f89 00bc
000000f0: 4a55 b43b 813d 083c b8e2 b93c c044 783a
00000100: 3d83 d13b cfd9 61bb fd97 6ebb e509 f4bb
00000110: 571a 84ba 5a36 893c 4033 cf3b c1de 30bb
00000120: 3697 893b 77c4 e33b a495 21bb 450f 77bb
00000130: 0d12 033c 75ef 31bc c4b1 0abb fbe9 243b
00000140: dd66 e63c 3d28 1bbc ef09 113d b04a 30bc
00000150: ca0d e6ba 5486 91bb b9d1 12bc 7ca2 d0bb
00000160: 0e66 74bc 1d6d 373c f2f3 38bc d28a ce3b
00000170: 1e8b 3abc 8bef 063c 375f 4bb9 a0b5 2d3c
00000180: d075 d93b 3b9d cbbc f4f0 42bb 8438 d83b
00000190: 8a59 cd3b 130c 03bc 6475 8f3b b94c f63b
000001a0: d8a0 edbb 5e8c 563b d00a b63b 5eef 443c
000001b0: 9c91 c7bb 3562 4d3b 19e7 203c 2ed6 0d3c
000001c0: 426b ed3b b366 25bb 936d b13b f061 a93c
000001d0: 12fc e43a 1bb4 aa3b bbf9 90bb 1982 303c
000001e0: d6d0 80bb 3706 b8bb f03a 20bc aa4c 753c
000001f0: 6730 453a 0966 8bbb d424 2abc 5b89 a6bb
00000200: 9b2e dabb 94f7 03bc 8599 313c 9c7b cbba
00000210: 505a 333c 148a 7ebb 2e41 b0bc 5d0b f4bb
00000220: cf35 0e3c b962 913b 21e8 bfbb 1262 423c
00000230: 07f3 38bb 3436 2cbc a751 ff3b 2e3c 9bb9
00000240: b2be ed3b ee5e 8bbc 4d63 90bc 99a6 34bb
00000250: 2279 bd3b 7eb5 ed3b be29 073b 204e 41bc
00000260: f7c8 d73b d089 1c3c b09b 3ebb 68b4 8b3b
00000270: 3b74 abbb f01a f0bb 923c 0ebc ae17 5b3c
00000280: 0d88 45bc bc86 ebbb 2157 c6bc af95 033c
00000290: 69d3 6d3c 6e27 9dbc d8a8 623c fe8f 91ba
000002a0: 0767 373c f91d 0ebc a58e 0c3c e20a 9dbc
000002b0: f2e9 6d3c 09d6 803c 1037 d13b 22e2 88bc
000002c0: abcd 023c 1936 813c 58d1 a13a 419d db3b
000002d0: 7793 f5bb e2ee af3a 6668 1a3b 4f93 e7bb
000002e0: 3c27 593a 0032 a2bc 02f9 333b c7da e6bb
000002f0: a459 b03c 9f72 0fbb 8258 8f3a 5b0d 8a3c
00000300: ca42 2f3c d94c d93a 9d77 fd3b 0428 cbbb
00000310: dfba 0cbc c9e0 c139 be89 63b9 a011 79bb
00000320: 209c fabb 3b96 863a eb6d 443b 1def 3dbb
00000330: 86ca 513b ee66 473b a1ef b6bc 0b57 223a
00000340: cc18 09bc 814e 0f3c bba4 2ebb a4db 183c
00000350: 5b2c 623c cf83 883b 3df8 be3a 0ea9 fabb
00000360: 0270 413b 746b 803c 8086 863a bb52 a5bc
00000370: 2348 6b3b 4e70 febb 86ca 8e3c 0e51 a93b
00000380: 143d 2a3c 14fa d63b 0559 a63c 30c8 d13a
00000390: 341b 02bc f4a2 d2bc e9b6 acb9 6c2d 0bb9
000003a0: 2289 57bc 6be1 f5bb ebb3 80bc 54a8 04bc
000003b0: 153a 3abc db1f 51bb 1e2d 353b 705b 4a3c
000003c0: ab18 283c 1e2b 48bc aa8b 843c 4dd3 25bc
000003d0: 2f3b 04bb cab8 623c 2400 173c 8ed2 32bc
000003e0: a5a0 473b e3ec 1b3c f06e 21bc 9c5d fdbb
000003f0: 9246 873c 0ee4 8c3a db68 343c 604c 07ba

q_1.bias f4 [64]
-0.07663773 0.040755913 -0.11766033 0.112808436 -0.014105871 0.016100332 -0.059444517 0.10788642
0.09336962 0.04121308 -0.01779823 0.092057094 -0.02342026 -0.017357737 0.023749277 0.064771086
-0.07679731 -0.025275946 -0.048414573 -0.034196123 -0.05006516 0.045914203 0.049652353 0.04685223
0.08845435 -0.02418153 0.031420246 0.114987805 0.009354621 0.07816073 -0.08048178 -0.08453371
-0.08660449 -0.013154969 -0.03006044 -0.118756846 -0.0979086 0.027580619 -0.070388526 0.0032873005
0.037794903 0.033912703 0.087923944 0.01708287 -0.10584994 -0.079741105 0.051284447 -0.089191765
-0.12424193 -0.074458495 0.06817521 0.066639185 -0.0038717687 0.09711076 -0.07586406 0.033302516
0.108113065 0.048203617 -0.09064169 -0.065593526 0.055427194 -0.100952506 0.115239814 -0.033290967
00000000: 3ef4 9cbd acef 263d e6f7 f0bd 1c08 e73d
00000010: 501c 67bc d8e4 833c 187c 73bd 8ef3 dc3d
00000020: 9238 bf3d 0ccf 283d 98cd 91bc 6e88 bc3d
00000030: d8db bfbc d031 8ebc d88d c23c b4a6 843d
00000040: e847 9dbd 800f cfbc 5c4e 46bd 3c11 0cbd
00000050: 2011 4dbd 8810 3c3d 4460 4b3d 20e8 3f3d
00000060: 8e27 b53d 5818 c6bc 84b2 003d ba7e eb3d
00000070: 2044 193c bc12 a03d a2d3 a4bd 0220 adbd
00000080: b25d b1bd f087 57bc 5041 f6bc ca36 f3bd
00000090: 4e84 c8bd c0f0 e13c dc27 90bd c06f 573b
000000a0: d4ce 1a3d 0ce8 0a3d 7811 b43d 60f1 8b3c
000000b0: dac7 d8bd 4e4f a3bd a40f 523d 2caa b6bd
000000c0: 8e72 febd b27d 98bd 729f 8b3d 207a 883d
000000d0: 80bd 7dbb 02e2 c63d 9e5e 9bbd 3868 083d
000000e0: 626a dd3d 2871 453d 5aa2 b9bd e655 86bd
000000f0: a007 633d 30c0 cebd da02 ec3d 1c5c 08bd

q_2.weight f4 [64, 64]
0.0021699977 -0.008729928 -0.0049979 0.0033085225 0.001692639 -0.0052483273 0.009506106 -0.0010724263
0.0016979908 0.001479844 0.0017336725 -0.010238018 -0.003818982 0.0044440897 0.00526378 0.000604555
0.0020721958 0.0075413287 0.0010306337 0.010266365 0.008672273 -0.011748309 -0.007640147 -0.017302444
0.0041372324 0.013897632 -0.0089979675 0.0097694015 -0.018662885 -0.018598244 -0.0027782263 -0.00019305764
0.0032268171 0.0036730506 -0.0041059633 0.007966971 0.008591707 0.013343947 0.007296675 0.010376415
-0.012301939 0.010051682 -0.0065244716 -0.0062397444 0.00899428 -0.012809949 0.0023816756 -0.010769526
-0.017040975 -0.0037480819 0.013099177 -0.00075033976 -0.0010502535 -0.0011613065 0.0038763522 0.0044421772
0.0030747906 -0.0015453385 -0.01029038 -0.012848783 0.00086815713 0.004914496 0.0053531695 0.018586066
0.007179844 0.0025730485 -0.0001326061 -0.017272798 -0.00015279683 0.0048882174 0.010043746 -0.02233553
-0.00728004 -0.00583253 0.006932538 0.016027838 0.013705617 0.005316748 -0.009814865 0.0154778445
0.008026415 0.01369058 0.007366154 -0.010733265 0.0026398539 0.011980445 0.00020041245 -0.0018545169
-0.014650551 -0.011605783 0.0035209581 0.0009223437 -8.348576e-05 0.0019936552 -1.9848354e-05 0.0057910597
0.009246606 -0.0046779383 -0.0103929695 0.0073402743 0.002511065 0.010229783 0.012916944 0.0015203129
-0.0033416438 0.0016919114 -0.014885264 -0.00030901024 0.017265238 0.0062566176 -0.007057123 0.0031138202
0.005674003 0.0002369575 -0.0044722967 -0.0029309446 -0.0004106593 0.010470552 0.01186548 -0.007613116
-0.018823827 0.0017932145 -0.0053605507 0.013554656 -0.00942695 -0.007131484 0.016008934 0.0069337953
-0.0046840394 -0.005884496 -0.014158339 -0.0011246237 0.008036769 0.009887294 -0.01292692 0.0007448216
0.013557751 0.011061146 0.030786911 0.011870938 0.006055287 0.005976656 -0.01095618 -0.00067696354
0.0071025006 -0.00035690144 0.020753374 -0.014675017 -0.0024400123 -0.015627764 -0.013309047 -0.012841605
0.004722739 -0.0049449443 0.0062975045 0.006395949 0.0017599716 0.003123591 0.00054832955 0.0078259315
-0.01481701 0.0024139066 0.011748064 0.0006635947 -0.002999262 -0.01829381 -0.0018791811 0.015241313
-0.004400338 -0.0028886485 0.0023504822 0.010649433 0.010770217 0.003974467 -0.014332763 0.004988345
-0.027394569 -0.0030065493 -0.0034415212 0.0037008275 0.0071818046 0.0065898127 -0.0033834376 0.0077215754
-0.014734869 0.0074824905 -0.007703886 -0.0018293693 0.017921481 -0.01003458 0.009567101 -0.012995167
-0.0020809544 0.015489465 0.00419943 0.019408375 -0.010417008 -0.0039015408 0.0005504897 0.002930171
0.004521344 -0.014078718 -0.0008603228 0.0012990625 -0.03342227 -0.007980418 -0.010820811 -0.009599094
0.0066163745 -0.011440462 -0.009265535 9.798589e-05 -0.008005002 0.011056542 -0.0061503276 -0.010176259
0.006119247 0.004816836 -0.0057486743 0.009400357 -0.007051932 -0.005010352 0.0052933036 -0.007235634
-0.015109477 0.022230258 0.011997978 -0.002542847 -0.0014248763 -0.0057294355 0.000899343 0.015486578
0.0015208739 0.013031231 0.011950542 0.019025708 0.010026733 0.006226635 -0.0046220967 0.006974486
0.017391348 -0.0125895655 -0.00031647354 -0.0031387159 -0.0016090558 0.015981767 -0.00071634835 -0.00819954
0.0066361134 0.013108722 -0.0047065793 0.00066759076 0.0036281666 -0.002936336 0.007471247 -0.0036003208
00000000: 8536 0e3b f907 0fbc 6dc5 a3bb ccd3 583b
00000010: 8adb dd3a 29fa abbb 80bf 1b3c a890 8cba
00000020: 1e8f de3a 53f7 c13a 653c e33a 5cbd 27bc
00000030: e347 7abb ba9f 913b c97b ac3b 007b 1e3a
00000040: adcd 073b 401d f73b 5416 873a 4134 283c
00000050: 2616 0e3c fb7b 40bc 335a fabb dbbd 8dbc
00000060: 9f91 873b e5b2 633c 366c 13bc d70f 203c
00000070: e8e2 98bc 585b 98bc e712 36bb 846f 4ab9
00000080: 0279 533b 90b7 703b 518b 86bb e687 023c
00000090: 3bc4 0c3c 92a0 5a3c f218 ef3b d701 2a3c
000000a0: 128e 49bc cfaf 243c 3ccb d5bb c576 ccbb
000000b0: bf5c 133c d2e0 51bc e315 1c3b aa72 30bc
000000c0: 8499 8bbc 61a2 75bb ee9d 563c 73b2 44ba
000000d0: a9a8 89ba fb36 98ba 660a 7e3b af8f 913b
000000e0: 6d82 493b f58c caba fb98 28bc b483 52bc
000000f0: 0a95 633a c809 a13b a469 af3b ce41 983c
00000100: e644 eb3b 97a0 283b 2e0c 0bb9 af7f 8dbc
00000110: 1638 20b9 572d a03b 868e 243c 00f9 b6bc
00000120: 678d eebb cf1e bfbb 582a e33b d04c 833c
00000130: 868d 603c 1d38 ae3b 87ce 20bc c996 7d3c
00000140: 3981 033c 744e 603c c75f f13b 94da 2fbc
00000150: 6601 2d3b a149 443c cf25 5239 4313 f3ba
00000160: dd08 70bc 2f26 3ebc e0bf 663b 70c9 713a
00000170: 1315 afb8 fca7 023b 0480 a6b7 eec2 bd3b
00000180: 147f 173c 6449 99bb 4647 2abc af86 f03b
00000190: ae90 243b d29a 273c 97a1 533c 3c45 c73a
000001a0: 7bff 5abb 20c3 dd3a 53e1 73bc a702 a2b9
000001b0: d46f 8d3c 5004 cd3b 703f e7bb 3c11 4c3b
000001c0: fdec b93b cb77 7839 588c 92bb 1715 40bb
000001d0: c24d d7b9 ae8c 2b3c 6e67 423c 7277 f9bb
000001e0: 6d34 9abc 4b0a eb3a 8fa7 afbb 5914 5e3c
000001f0: 7e73 1abc 39af e9bb 2b25 833c e434 e33b
00000200: 927c 99bb bbd2 c0bb 61f8 67bc 1c68 93ba
00000210: a7ac 033c 51fe 213c 6fcb 53bc 2240 433a
00000220: 5421 5e3c cf39 353c d534 fc3c 537e 423c
00000230: 6e6b c63b d3d7 c33b 8d81 33bc 4176 31ba
00000240: 18bc e83b 801e bbb9 fb02 aa3c 7c6f 70bc
00000250: 9de8 1fbb cc05 80bc 300e 5abc 9865 52bc
00000260: 35c1 9a3b 3309 a2bb 4c5b ce3b 1c95 d13b
00000270: d9ae e63a 29b5 4c3b c6bd 0f3a 5638 003c
00000280: 0bc3 72bc a232 1e3b f47a 403c 16f5 2d3a
00000290: 448f 44bb e6dc 95bc db4e f6ba b3b6 793c
000002a0: b630 90bb 7b4f 3dbb 8c0a 1a3b f67a 2e3c
000002b0: 9075 303c 3f3c 823b f7d3 6abc 4575 a33b
000002c0: 936a e0bc 8709 45bb 258b 61bb 9589 723b
000002d0: 5855 eb3b 5bef d73b aabc 5dbb 4505 fd3b
000002e0: 856a 71bc ae2f f53b e170 fcbb 73c7 efba
000002f0: 12d0 923c 1468 24bc 54bf 1c3c aee9 54bc
00000300: 9f60 08bb 86c7 7d3c 5f9b 893b 50fe 9e3c
00000310: 19ac 2abc feb0 7fbb bd4e 103a 1d08 403b
00000320: c827 943b 6caa 66bc 4987 61ba 4e45 aa3a
00000330: cae5 08bd 4dc0 02bc c549 31bc 8545 1dbc
00000340: 2cce d83b c770 3bbc 78ce 17bc c67d cd38
00000350: 6927 03bc 8026 353c b088 c9bb 53ba 26bc
00000360: f783 c83b 8dd6 9d3b 605f bcbb f403 1a3c
00000370: e513 e7bb e12d a4bb 7373 ad3b e618 edbb
00000380: bd8d 77bc 3b1c b63c 2b93 443c e5a5 26bb
00000390: eac2 baba fdbd bbbb e3c1 6b3a 6bbb 7d3c
000003a0: 0f58 c73a f280 553c 35cc 433c cddb 9b3c
000003b0: 2b47 243c cd08 cc3b f574 97bb 3b8a e43b
000003c0: 4d78 8e3c 7744 4ebc 5cec a5b9 eab2 4dbb
000003d0: f4e6 d2ba 32ec 823c 53c9 3bba 5d57 06bc
000003e0: c173 d93b f7c5 563c a639 9abb 4201 2f3a
000003f0: 89c6 6d3b 8b6f 40bb 5dd1 f43b 5cf3 6bbb

q_2.bias f4 [64]
0.08663231 0.082857236 0.082465634 0.08868177 0.123523355 -0.04232028 0.10380913 -0.0077362806
0.06461902 0.033317074 0.11188772 -0.092386246 0.0099861175 0.11057225 -0.1110571 -0.03554547
0.016506806 -0.0137271285 -0.08272205 -0.011220843 -0.04077436 -0.009190828 -0.010688916 0.027996182
-0.044521302 -0.03561294 0.049101308 -0.037314102 -0.04217519 0.006113097 0.07596032 0.121130586
-0.09699114 0.031558275 0.07399909 0.05215001 0.035669506 -0.0074511617 0.038603306 0.046685845
0.091670096 0.025483847 -0.10870765 0.06692107 0.12450737 0.08258815 0.073342994 -0.005410999
-0.107289985 -0.08507128 0.016505748 -0.079292715 0.004263997 -0.0592023 0.082243055 0.038404956
-0.101049185 0.021045431 -0.030311376 0.044861242 -0.06278986 0.038090006 0.116065085 -0.11173712
00000000: 486c b13d 0eb1 a93d bee3 a83d ca9e b53d
00000010: d0f9 fc3d 0858 2dbd e299 d43d a080 fdbb
00000020: fa56 843d 7c77 083d 6425 e53d 0035 bdbd
00000030: d09c 233c b473 e23d e871 e3bd 2098 11bd
00000040: 4839 873c c0e7 60bc 2e6a a9bd a0d7 37bc
00000050: 0403 27bd 2095 16bc 9020 2fbc 4058 e53c
00000060: f85b 36bd e0de 11bd 741e 493d acd6 18bd
00000070: e4bf 2cbd 6050 c83b 1691 9b3d 5013 f83d
00000080: 4aa3 c6bd 4043 013d d68c 973d 409b 553d
00000090: 301a 123d e028 f4bb 801e 1e3d a839 3f3d
000000a0: 88bd bb3d 80c3 d03c 1ea2 debd ea0d 893d
000000b0: b8fd fe3d fa23 a93d da34 963d c04e b1bb
000000c0: daba dbbd da39 aebd 1037 873c 3864 a2bd
000000d0: 00b9 8b3b 1c7e 72bd 0c6f a83d 844e 1d3d
000000e0: e0f2 cebd 7867 ac3c 904f f8bc 6cc0 373d
000000f0: f897 80bd 4404 1c3d 88b3 ed3d 6ed6 e4bd

q_reg.weight f4 [64, 128]
-0.0069447886 0.004588027 -0.012530338 -0.0041334108 -0.0035127003 0.0030197043 0.0012015197 -0.007434318
0.0013233718 -0.0038771115 0.0053606825 0.0061676004 0.0074481647 0.0068760836 0.0023008052 -0.018761957
-0.008008033 0.012427979 0.00012361533 -0.0040659555 -0.004548691 0.0040189475 0.0022094704 0.0112463515
-0.014582591 -0.0038349528 0.0011127294 0.0013172787 0.012371444 0.003936231 -0.0079200305 -0.012784123
0.004109286 -0.015406387 0.005470029 0.004686027 0.0056832186 0.023124577 0.017679185 0.015462827
0.017067904 -0.00849848 -0.00824869 -0.0067051477 -0.02272235 -0.0052563422 -0.008558224 -0.0098535605
0.010177197 0.0024970795 -0.010814042 -0.005919142 -7.653002e-05 0.008825595 -0.0011485413 0.004149245
-0.01520135 0.0018713126 0.010657957 -0.008115378 -0.009951152 -0.0107996 0.010125011 -0.0011010986
0.013433546 -0.0091486545 0.012358976 0.009277241 0.0041760574 -0.006632901 0.011360053 -0.003031087
0.015486373 0.015499896 0.0072447937 -0.0025704126 -0.0020083708 0.004150562 -0.0040604253 0.0007802634
0.009169082 -0.00996995 0.010616221 0.011930066 -0.0128677655 -0.0250303 0.00243708 -0.008055708
0.001273797 0.00574218 -0.006168857 -0.0042566992 0.007287647 0.0011684297 -0.0001450716 0.005118094
-0.0077039693 -0.02691641 -0.00014956154 0.002080368 0.003928106 -0.016948532 -0.0016509282 0.0041798935
-0.0073939436 0.00246136 -0.009085844 0.021102397 -0.004796406 -0.0043605124 -0.0006598714 0.00023561627
-0.03897876 -0.01077448 0.0048379353 -0.0017567112 0.015406168 -0.00400856 -0.020281045 -0.0054738573
-0.0065958137 -0.0016670373 0.010795448 0.00319931 0.0028888725 0.005683974 -0.0110902935 0.0040560584
-0.001120696 -0.0049628825 -0.002048841 -0.0002341482 0.012930531 -0.011662078 -0.00084309507 0.0060285744
0.01736248 0.0031163176 -0.0017807407 -0.0015647205 0.005689707 0.0092063425 0.0010923368 -0.025870146
-0.003396625 0.016102318 0.0050402945 0.0064369887 -0.02060742 0.010168265 -0.0166357 -0.0034457706
0.010220792 0.004149799 0.0045144097 -0.000716556 0.0012140097 -0.015570322 0.01483484 -0.005505599
-0.003413586 -0.0137125775 0.0076359366 0.014889457 -0.0021454864 0.005336342 -0.013458039 -0.00030372365
-0.014545353 0.0036625813 -0.0021152622 0.012393365 -0.0035049843 -0.0047331355 0.017013647 -0.008825577
-0.017924922 0.0064547337 -0.004391409 -0.0070340857 -0.010265725 0.0065550962 0.023217406 0.015488099
-0.0074011544 0.010286359 -0.0005743509 -0.0108647775 -0.0076121376 0.009100045 -0.018436503 -0.005418832
0.010220958 0.009822092 -0.00082674285 -0.00382143 0.007988084 0.0110444 -0.0006285469 -0.009506445
-0.0071059535 0.0063636443 0.013187195 -0.016394027 0.0018782616 0.0065623694 0.014850852 0.0024425269
0.00014290222 -0.0041602715 -0.0067357556 -0.010013206 0.00699643 0.0049445652 0.005147417 -0.001698312
-0.010296106 -0.012487757 -0.013317234 0.001813208 0.001496118 -0.005452542 -0.0037151459 -0.0016131124
-0.0052541457 0.023770323 -0.004099191 0.009304121 -0.0066516283 0.005409782 -0.011090565 -0.0034308222
-0.00325977 0.0042306576 0.003672648 0.01898328 -0.0021001906 -0.0022851725 0.019390894 0.00094689004
0.010210044 0.0074386816 0.006180481 -0.0036766706 -0.010469053 -0.0014967629 0.010516748 0.025625085
-0.0031009333 0.009329798 0.00058823463 0.01087936 0.004318188 -0.018349841 -0.0011480507 0.0021104189
00000000: 1c91 e3bb 2957 963b 0c4c 4dbc 9071 87bb
00000010: 5535 66bb 3be6 453b 507c 9d3a 949b f3bb
00000020: fd74 ad3a 2317 7ebb aaa8 af3b 9519 ca3b
00000030: bc0f f43b c550 e13b 1bc9 163b adb2 99bc
00000040: 2034 03bc b99e 4b3c bd9e 0139 b53b 85bb
00000050: 300d 95bb 60b1 833b c3cc 103b 9e42 383c
00000060: d2eb 6ebc d553 7bbb 01d9 913a 8aa8 ac3a
00000070: 99b1 4a3c 80fb 803b 04c3 01bc 8074 51bc
00000080: 30a7 863b 126b 7cbc ee3d b33b 3e8d 993b
00000090: 4b3a ba3b c16f bd3c f0d3 903c cc57 7d3c
000000a0: fdd1 8b3c 353d 0bbc 8325 07bc dbb6 dbbb
000000b0: 3924 babc 653d acbb cb37 0cbc d470 21bc
000000c0: 42be 263c 0ba6 233b 612d 31bc 5df5 c1bb
000000d0: be7e a0b8 3a99 103c a78a 96ba 64f6 873b
000000e0: 150f 79bc d546 f53a b69e 2e3c 5df6 04bc
000000f0: 280a 23bc cef0 30bc 60e3 253c bd52 90ba
00000100: 6018 5c3c 3de4 15bc 4d7d 4a3c 92ff 173c
00000110: 4fd7 883b ce58 d9bb 841f 3a3c 34a5 46bb
00000120: 8eba 7d3c 47f3 7d3c bc65 ed3b 5e74 28bb
00000130: df9e 03bb 7001 883b 510d 85bb 978a 4c3a
00000140: eb39 163c 0059 23bc a9ef 2d3c 5376 433c
00000150: 52d3 52bc 580c cdbc 6bb7 1f3b 17fc 03bc
00000160: 89f5 a63a e628 bc3b 2024 cabb c87b 8bbb
00000170: 37cd ee3b ff25 993a 5c1e 18b9 afb5 a73b
00000180: 9471 fcbb ce7f dcbc 9fd3 1cb9 c956 083b
00000190: 57b7 803b a6d7 8abc f563 d8ba 7df7 883b
000001a0: e548 f2bb c54e 213b cbdc 14bc efde ac3c
000001b0: 2b2b 9dbb a1e2 8ebb 38fb 2cba c30f 7739
000001c0: 31a8 1fbd 7287 30bc 8b87 9e3b 7241 e6ba
000001d0: 276a 7c3c 3d5a 83bb 6f24 a6bc 0b5e b3bb
000001e0: b221 d8bb 7d80 daba 64df 303c 84ab 513b
000001f0: 3d53 3d3b a140 ba3b 10b4 35bc afe8 843b
00000200: 51e4 92ba ad9f a2bb d945 06bb ae85 75b9
00000210: 94da 533c 4d12 3fbc 2703 5dba 598b c53b
00000220: c23b 8e3c 223b 4c3b be67 e9ba 4f17 cdba
00000230: b970 ba3b 33d6 163c be2c 8f3a a1ed d3bc
00000240: e999 5ebb 02e9 833c 0e29 a53b 60ed d23b
00000250: e4d0 a8bc cb98 263c 9747 88bc 70d2 61bb
00000260: 1c75 273c 09fb 873b 9ded 933b 42d7 3bba
00000270: 681f 9f3a aa1a 7fbc d40d 733c 5068 b4bb
00000280: 78b6 5fbb b8aa 60bc e136 fa3b e9f2 733c
00000290: 4a9b 0cbb 7bdc ae3b 1b7f 5cbc 193d 9fb9
000002a0: a24f 6ebc eb07 703b 36a0 0abb 8a0d 4b3c
000002b0: e1b3 65bb 6b18 9bbb 3460 8b3c 2799 10bc
000002c0: 49d7 92bc 3b82 d33b cfe5 8fbb 307e e6bb
000002d0: 9231 28bc 22cc d63b 6e32 be3c ccc1 7d3c
000002e0: 6285 f2bb 1e88 283c 0990 16ba 2e02 32bc
000002f0: 3d6f f9bb 5b18 153c 2608 97bc 7590 b1bb
00000300: ce75 273c d7ec 203c c6b9 58ba f570 7abb
00000310: 74e0 023c 92f3 343c 12c5 24ba ecc0 1bbc
00000320: 0fd9 e8bb 1e86 d03b 1b0f 583c c44c 86bc
00000330: 0030 f63a 2509 d73b fd50 733c cd12 203b
00000340: 06d8 1539 e352 88bb 9db7 dcbb 6e0e 24bc
00000350: 4f42 e53b 0506 a23b aaab a83b e599 deba
00000360: 00b1 28bc 7399 4cbc 8730 5abc 2aa9 ed3a
00000370: 6419 c43a 3dab b2bb ce79 73bb 126f d3ba
00000380: f82a acbb fbb9 c23c 8252 86bb 5070 183c
00000390: e7f5 d9bb 8a44 b13b 33b5 35bc a5d7 60bb
000003a0: dea1 55bb 54a1 8a3b cfb0 703b d382 9b3c
000003b0: 5aa3 09bb d5c2 15bb a7d9 9e3c b738 783a
000003c0: 0748 273c 2fc0 f33b a285 ca3b 4cf4 70bb
000003d0: 6486 2bbc 072f c4ba 704e 2c3c b3eb d13c
000003e0: 0739 4bbb 02dc 183c c233 1a3a 583f 323c
000003f0: 967f 8d3b 6852 96bc 307a 96ba f44e 0a3b

q_reg.bias f4 [64]
0.08255566 -0.07983506 0.002382815 -0.016230382 0.07806908 -0.080418944 -0.019350901 -0.0879777
0.078546844 -0.07041908 0.00067682564 -0.074165724 0.034494504 0.029752232 0.041860886 -0.040443715
-0.06569442 0.0026485473 0.049589552 -0.04480505 0.002160713 0.034373924 0.020262897 0.024397954
0.03297504 -0.031958036 0.05342386 -0.015933238 0.008638419 -0.023089297 0.033856794 -0.05542891
-0.014339685 0.06155979 -2.424419e-05 -0.082398415 0.028969713 -0.081180036 -0.072682776 -0.03987312
-0.047792397 0.08320219 0.03939586 0.04447242 0.021103568 -0.049816575 -0.036237027 0.0052211806
0.04533773 0.023337573 0.04311327 0.061558284 0.025517851 0.058049493 0.07467828 -0.08177023
0.07969219 -0.041892156 0.073993064 0.039460503 0.01660692 0.05144774 0.011619113 -0.013956688
00000000: f112 a93d 9080 a3bd 0029 1c3b 94f5 84bc
00000010: afe2 9f3d b0b2 a4bd c885 9ebc a72d b4bd
00000020: 2bdd a03d e137 90bd 006d 313a 33e4 97bd
00000030: 1c4a 0d3d f4ba f33c 5276 2b3d 4fa8 25bd
00000040: cc8a 86bd 4093 2d3b 6a1e 4b3d 8085 37bd
00000050: c09a 0d3b accb 0c3d 60fe a53c 38de c73c
00000060: d610 073d 6ee6 02bd fad2 5a3d 6c86 82bc
00000070: 2888 0d3c c425 bdbc 6cad 0a3d 6d09 63bd
00000080: 00f1 6abc 1e26 7c3d 0060 cbb7 80c0 a8bd
00000090: e451 ed3c b841 a6bd b5da 94bd ff51 23bd
000000a0: f6c1 43bd e965 aa3d 8e5d 213d b628 363d
000000b0: 64e1 ac3c 770c 4cbd 476d 14bd 7016 ab3b
000000c0: 0eb4 393d 702e bf3c 8a97 303d 8a24 7c3d
000000d0: d00a d13c 4ec5 6d3d edf0 983d 2677 a7bd
000000e0: a935 a33d 1c97 2bbd ad89 973d 56a1 213d
000000f0: 3c0b 883c deba 523d 185e 3e3c 98aa 64bc

q.weight f4 [1, 64]
0.002187998 -0.010811595 0.007919719 0.01612754 -0.0010529405 0.009574504 0.012816195 -0.035607506
0.01275449 -0.00041780144 0.0017118036 -0.009849089 0.015224346 0.0050978493 0.0044670817 0.016009318
7.3488845e-05 -0.011889638 0.015047429 -0.0033409216 0.013968734 0.006823361 0.006194394 -0.015867922
0.009377528 -0.004247302 -0.00963486 0.0075041503 -0.005111214 -0.0024807388 0.003798172 0.0033420944
-0.0055869143 0.006077657 0.0035590352 -0.010755573 0.0010856333 0.016594015 0.025334286 0.004873055
0.00047469945 -0.011706682 -0.00019683018 0.01726693 0.004740431 0.0037257231 -0.0021613985 -0.0022161044
-0.0061105583 -0.013300917 0.00037028614 0.0149673065 -0.010376613 -0.0022080003 0.005261211 -0.0035896031
-0.015907584 0.009198204 -0.0043331063 -0.0027440833 0.0032665427 0.004991858 -0.01148868 0.0064117396
00000000: 8464 0f3b 1e23 31bc b6c1 013c e71d 843c
00000010: d202 8aba 61de 1c3c 05fb 513c 2dd9 11bd
00000020: 35f8 503c 5c0c dbb9 995e e03a 135e 21bc
00000030: 896f 793c dc0b a73b 9960 923b f925 833c
00000040: 061e 9a38 c2cc 42bc 7e89 763c 5df3 5abb
00000050: 1edd 643c 8096 df3b 58fa ca3b 72fd 81bc
00000060: 34a4 193c f42c 8bbb 88db 1dbc 60e5 f53b
00000070: f87b a7bb e493 22bb c1ea 783b 0a07 5b3b
00000080: 6f12 b7bb 1527 c73b b43e 693b 2538 30bc
00000090: cf4b 8e3a 2cf0 873c d989 cf3c 26ae 9f3b
000000a0: 15e1 f839 62cd 3fbc 3364 4eb9 6073 8d3c
000000b0: 9e55 9b3b 432b 743b 40a6 0dbb 103c 11bb
000000c0: 143b c8bb 17ec 59bc f722 c239 6f39 753c
000000d0: ab02 2abc 19b4 10bb 3d66 ac3b 8c3f 6bbb
000000e0: 9f50 82bc 10b4 163c bbfc 8dbb 14d6 33bb
000000f0: 7e13 563b bd92 a33b 043b 3cbc 9219 d23b
